models/parking_actor_SAC.pt (torch, 156199 bytes, 8 tensors)

l1.weight f4 [256, 18]
0	0xbfad0091	-1.3515798
1	0xbe9dafd5	-0.30798212
2	0x3df299a1	0.11845709
3	0xbd77d6f2	-0.060507722
4	0xbe78d9e5	-0.2430187
5	0x3e7b381e	0.24533126
6	0xbfa48e57	-1.2855939
7	0xbe020d72	-0.12700441
8	0x3e4df011	0.2011111
9	0x3cd0ad62	0.0254733
10	0xbe582bc4	-0.21110445
11	0x3e25310b	0.1613199
12	0x3e67f556	0.22652182
13	0xbd898e1a	-0.06716557
14	0x3c865608	0.016398445
15	0xbdde910c	-0.10867509
16	0xbdee7252	-0.116428986
17	0xbe08caa7	-0.13358556
18	0x3fe35eb6	1.7763278
19	0x3ed35ac5	0.4128019
20	0x3e899e85	0.26878753
21	0x3dab0a1c	0.083515376
22	0xbe4a31ae	-0.19745514
23	0xbd8f8943	-0.070086025
24	0x3febf862	1.8435175
25	0x3f01aeff	0.5065765
26	0x3b8251c6	0.0039770333
27	0x3e5bc4e2	0.21461824
28	0xbe333b8d	-0.17503186
29	0xbeb187bd	-0.34673873
30	0xc0173daf	-2.3631399
31	0xbd7c63e6	-0.061618708
32	0x3d4fe3b4	0.050754264
33	0x3e1dff95	0.15429528
34	0x3e68161f	0.22664689
35	0xbd48456e	-0.04889434
36	0xbe2d0b40	-0.16898823
37	0xbfc06c21	-1.5032998
38	0xbd077e17	-0.033079233
39	0xbe97b31f	-0.29628846
40	0x3e6f7b20	0.23386812
41	0x3e555bd5	0.20835812
42	0x3bd835ee	0.006598226
43	0xbfb9b904	-1.4509587
44	0xbc9845c7	-0.01858796
45	0x3c9baddf	0.019003807
46	0x3e669bda	0.2252039
47	0x3eb34f27	0.35021326
48	0xbf81b8c3	-1.013451
49	0x3ec7dbed	0.39034978
50	0x3d9c0e02	0.07619859
51	0x3d20a7d4	0.039222553
52	0xbdfea8a3	-0.12434509
53	0x3ed89c55	0.42306772
54	0x3fb3e7f1	1.4055158
55	0xbf885c68	-1.06532
56	0x3d23510f	0.039872225
57	0x3e268d4f	0.16264842
58	0xbe97ba94	-0.29634535
59	0x3e2c78ea	0.16843
60	0x3f8f29ab	1.1184591
61	0xbf90a48d	-1.1300217
62	0x3de4d44b	0.11173304
63	0x3d0e3d04	0.034726158
64	0xbea8ea18	-0.329911
65	0xbddd6de3	-0.10811975
66	0xbfef0f7a	-1.8676598
67	0x3e8c913b	0.27454552
68	0x3e2905e9	0.16506161
69	0x3e601945	0.2188464
70	0x3d752f24	0.05985941
71	0x3cddad1d	0.027060086
72	0xbfd600e8	-1.6719027
73	0xbe16158a	-0.14656654
74	0xbde6801e	-0.11254905
75	0x3e173d58	0.14769495
76	0xbe1b9787	-0.15194522
77	0xbe8517cb	-0.25994715
78	0xbfd093cd	-1.6295105
79	0x3ba335ff	0.004980802
80	0x3e572de3	0.21013598
81	0xb96413d4	-0.00021751161
82	0xbe959af3	-0.2921978
83	0x3dd3b440	0.10337114
84	0x3df2f789	0.1186362
85	0x3cbb3e03	0.022856718
86	0x3d25a164	0.040437117
87	0x3e2bdcd7	0.16783462
88	0xbdde149c	-0.10843775
89	0x3b30835e	0.002693377
90	0x3e030209	0.12793745
91	0x3fd6df77	1.6786946
92	0xbd787797	-0.060660925
93	0x3e4da9dc	0.20084327
94	0x3dc56ff2	0.096404925
95	0xbeb7d7e3	-0.35906896
96	0x3de221e8	0.11041623
97	0x3fce5cd6	1.6122081
98	0x3d8fbb88	0.070181906
99	0x3dfc2648	0.12311989
100	0x3d1b2097	0.037872877
101	0xbebc37f9	-0.36761454
102	0xbec0a1c2	-0.3762341
103	0xbf2f9626	-0.68588483
104	0xbda980c6	-0.08276515
105	0xbe0d8cc0	-0.13823223
106	0xbdd399a8	-0.10332042
107	0xbeab9cb2	-0.33517987
108	0xbf44176a	-0.7659823
109	0x3fd27b01	1.6443788
110	0x3e23b9f9	0.15988912
111	0xbeb9d843	-0.36297807
112	0xbeb3aa00	-0.35090637
113	0x3d311443	0.043232214
114	0xbf8faca1	-1.1224557
115	0x3fd8cceb	1.6937536
116	0x3e1baa4d	0.15201683
117	0xbe194392	-0.14967182
118	0xbd9eadab	-0.07747968
119	0xbd8e6718	-0.06953257
120	0x3fb04570	1.3771191
121	0x3daa8cce	0.083276376
122	0x3d691bc4	0.056911245
123	0x3d4943ac	0.049136803
124	0x3e60a59d	0.21938176
125	0xbd0da6eb	-0.034583014
126	0x3f57f845	0.84363204
127	0x3e1f6156	0.15564474
128	0xbe541389	-0.20710577
129	0x3d1b800f	0.037963923
130	0xbe5465f5	-0.20742019
131	0x3d9b9839	0.075973935
132	0x3f44e9e3	0.7691938
133	0x3da4961a	0.08036442
134	0xbdef7f7d	-0.11694238
135	0x3dbd1350	0.09232199
136	0xbf0d5a16	-0.55215585
137	0xbe9a04cc	-0.30081785
138	0x3f6d9a52	0.928136
139	0xbe94682b	-0.28985724
140	0x3df5de2a	0.12005265
141	0x3ceb1788	0.028697744
142	0xbd9ea404	-0.07746127
143	0xbe7f2558	-0.2491659
144	0xbd88837e	-0.06665705
145	0xbf8be328	-1.0928698
146	0x3e0ea71b	0.13930933
147	0xbe92f61f	-0.287034
148	0xbf04db79	-0.5189739
149	0x3e597827	0.2123724
150	0xbe8c4ec7	-0.27403852
151	0xbfa28534	-1.26969
152	0x3ebd6906	0.3699419
153	0xbddde46f	-0.10834586
154	0xbe8f6324	-0.28005326
155	0x3cf0fd05	0.029417524
156	0x3e9b3c49	0.3031943
157	0x3e4bcfb4	0.19903451
158	0xbd831e1c	-0.06402227
159	0x3dec2372	0.11530198
160	0xbbc44a20	-0.0059902817
161	0x3e8354da	0.25650674
162	0x3fb564a5	1.4171339
163	0x3fdacedf	1.7094382
164	0xbe677d51	-0.22606398
165	0x3da93c78	0.082634866
166	0xbd79f7e8	-0.061027437
167	0x3dd102c2	0.10205604
168	0x3fd8f03a	1.6948311
169	0x3fefa077	1.8720845
170	0x3e6e797e	0.23288533
171	0xbe21bb56	-0.15794119
172	0x3d023668	0.031790167
173	0xbcb41de1	-0.021986904
174	0xbfb6c896	-1.4279964
175	0xbe1bb8a4	-0.15207154
176	0x3d61845c	0.05505787
177	0x3e052a6b	0.13004462
178	0x3d5d6d44	0.054059282
179	0xbe7f394d	-0.24924202
180	0xc0147f94	-2.3202868
181	0x3f7a266b	0.9771487
182	0x3e3cf6bc	0.18453497
183	0xbd8c5dd7	-0.06853836
184	0x3e3b3d5f	0.1828513
185	0xbc5b78e0	-0.013395518
186	0xc008dace	-2.1383548
187	0x3f5f0e85	0.8713153
188	0x3e535159	0.206365
189	0x3d1b9c3d	0.037990797
190	0x3d8cf0c4	0.0688186
191	0xbe71abd7	-0.23600708
192	0x3f85aa4c	1.0442595
193	0xbe49ecb5	-0.19719203
194	0x3e5f3f87	0.21801578
195	0xbe245afe	-0.16050336
196	0xbd0091e8	-0.031389147
197	0x3bb08120	0.0053864866
198	0xbe8baa84	-0.2727853
199	0x3fd4932d	1.6607414
200	0x3c4b28e7	0.012399889
201	0xbe668368	-0.22511065
202	0xbe6c51b4	-0.23078042
203	0x3e25fd4e	0.1620991
204	0xbf2fd210	-0.68679905
205	0x3fdb74f8	1.7145071
206	0x3e64620b	0.22303025
207	0x3daaaf34	0.083341986
208	0xbe84e58d	-0.25956383
209	0xbdd47110	-0.103731275
210	0x3f6845b3	0.9073135
211	0xbec86b19	-0.3914421
212	0xbd8725ce	-0.065990075
213	0x3e42d35d	0.19025941
214	0xbdc6464a	-0.09681375
215	0xbed2a43a	-0.4114092
216	0xbf26a830	-0.65100384
217	0xbfa3adde	-1.2787435
218	0x3d4a545f	0.04939687
219	0xbe44cbfb	-0.19218437
220	0xbe80c472	-0.25149876
221	0x3f03d2e8	0.5149369
222	0xbf292ab1	-0.66080767
223	0xbfc118aa	-1.5085652
224	0x3e934819	0.28765944
225	0x3bfcfe0e	0.0077207154
226	0xbecd70ff	-0.40125272
227	0x3f06e05a	0.52686083
228	0x3f861d3a	1.0477669
229	0x3e9045ff	0.28178403
230	0x3d98e396	0.074652836
231	0x3e193e79	0.14965238
232	0xbe3471bc	-0.17621511
233	0xbd93a0e2	-0.0720842
234	0x3bbdfb58	0.005797785
235	0x3fd6635f	1.6749076
236	0xbdb7a9cc	-0.08967933
237	0x3c2811f1	0.010258184
238	0x3ec0d32b	0.37661108
239	0x3da6c49b	0.08142968
240	0x3e4a4187	0.19751559
241	0x3fd39276	1.6529071
242	0xbdb954e6	-0.09049396
243	0xbd94cb4f	-0.072653405
244	0x3e8ec63c	0.27885616
245	0xbe3ef7cc	-0.18649215
246	0x3f8d0450	1.1016941
247	0xbe1447e6	-0.14480552
248	0xbd68f12c	-0.056870624
249	0x3dc4d5ca	0.096110895
250	0xbdbbf136	-0.09176867
251	0xbe5375bd	-0.20650382
252	0x3f5b3bce	0.8563813
253	0xbf72bfa1	-0.9482365
254	0x3d39e0f8	0.045380563
255	0xbd24f540	-0.04027295

l1.bias f4 [256]
0	0xbe44bbc1	-0.19212247
1	0xbf1f58e6	-0.62245023
2	0xbecca7cc	-0.3997177
3	0xbecda835	-0.40167394
4	0xbe5eb86d	-0.2175004
5	0xbf0c2b34	-0.5475342
6	0xbebf1c19	-0.37326124
7	0xbf4e9beb	-0.8070666
8	0xbecf01c6	-0.4043104
9	0xbe981ce5	-0.29709545
10	0xbec6a300	-0.38796234
11	0xbdfd1d2b	-0.12359079
12	0xbedf3bcc	-0.4360031
13	0xbebbd7da	-0.3668812
14	0xbf89976b	-1.0749334
15	0xbf1f3776	-0.62194
16	0xbe9028d1	-0.2815614
17	0xbe9954d5	-0.29947534
18	0xbf94b6c4	-1.1618276
19	0xbd1e6f45	-0.038680334
20	0xbee408de	-0.44538015
21	0xbf1b44ff	-0.60652155
22	0xbceea35e	-0.029130634
23	0xbf107b89	-0.564385
24	0xbf1a35f4	-0.60238576
25	0xbef0264d	-0.4690422
26	0xbf87446c	-1.0567756
27	0xbeefdea4	-0.4684955
28	0xbeefeb22	-0.4685908
29	0xbe874b3f	-0.26424596
30	0xbbbb340b	-0.005712991
31	0xbeafb16b	-0.34315047
32	0xbf2f229b	-0.6841218
33	0xbd2123aa	-0.039340653
34	0xbdbfd2e2	-0.093663946
35	0xbf30819d	-0.68947774
36	0xbe76e0c3	-0.24109177
37	0xbf94c248	-1.162179
38	0xbf380319	-0.71879727
39	0xbf3c6baa	-0.7360178
40	0xbe12dab6	-0.14341244
41	0x3dac7e43	0.0842252
42	0xbef02a8f	-0.4690747
43	0xbf10cac3	-0.5655939
44	0xbf4a6848	-0.7906537
45	0xbf250125	-0.6445487
46	0xbe82b797	-0.25530693
47	0xbee45617	-0.4459693
48	0xbf210c51	-0.6290942
49	0xbf24ec40	-0.6442299
50	0xbf1ce040	-0.6127968
51	0xbe33fa24	-0.1757589
52	0xbf3dd98d	-0.7416008
53	0xbf0767fc	-0.5289304
54	0xbea8e302	-0.32985693
55	0xbf140e99	-0.57834774
56	0xbf5aee1d	-0.8551958
57	0xbf3fa604	-0.74862695
58	0xbf04a2e8	-0.51811075
59	0xbe81f6c7	-0.2538359
60	0xbf390f7c	-0.7228925
61	0xbec9984f	-0.39374015
62	0xbf84a682	-1.0363314
63	0xbfa48d90	-1.2855701
64	0xbede329c	-0.43397987
65	0xbc739e73	-0.01486932
66	0xbe42f880	-0.19040108
67	0xbe3b7164	-0.18304974
68	0xbf4321db	-0.76223534
69	0xbf12f5a7	-0.57406086
70	0xbe9e0ea5	-0.30870548
71	0xbf7a5e19	-0.9779983
72	0xbe418d46	-0.18901548
73	0xbe73cfe2	-0.2380977
74	0xbf1084b7	-0.56452507
75	0x3dc44b99	0.095847316
76	0xbf707148	-0.93922853
77	0xbf04916e	-0.5178441
78	0xbf2e1d25	-0.6801322
79	0xbf3efcc0	-0.74604416
80	0xbe8e2fed	-0.2777094
81	0xbefb71b7	-0.49110195
82	0xb83bb88f	-4.4756158e-05
83	0xbf1824a5	-0.59430915
84	0xbf2a06fd	-0.66416913
85	0xbf3e5cfc	-0.7436063
86	0xbee6cfc8	-0.450804
87	0xbf06eb7d	-0.52703077
88	0xbf30e878	-0.6910472
89	0xbea1442d	-0.31497326
90	0xbddfe4cd	-0.10932312
91	0xbeb51654	-0.35368598
92	0xbf55e2be	-0.83549106
93	0xbeda3c9d	-0.4262437
94	0xbec80db8	-0.39072967
95	0x3d510f1d	0.051039804
96	0xbf6a9070	-0.91626644
97	0xbf1a85e9	-0.6036058
98	0xbeda96c6	-0.42693156
99	0xbf600a69	-0.87515885
100	0xbf0c9a20	-0.54922676
101	0xbed0f880	-0.4081459
102	0x3d513943	0.05108
103	0xbc5e30a4	-0.0135614015
104	0xbeb869ee	-0.36018318
105	0xbf28f556	-0.6599935
106	0xbcd7271b	-0.026263764
107	0xbf106aa9	-0.5641275
108	0xbf3c50cd	-0.7356079
109	0xbea73740	-0.3265934
110	0xbf2e979d	-0.68200094
111	0xbf4f66c4	-0.8101618
112	0xbe56ee7b	-0.2098941
113	0xbf35b8fa	-0.70985377
114	0xbe83bbac	-0.2572912
115	0xbeb1c5ee	-0.3472132
116	0xbf414b0e	-0.7550515
117	0xbf407360	-0.7517605
118	0xbe059180	-0.13043785
119	0xbf2343e2	-0.63775456
120	0xbeced779	-0.40398768
121	0xbefd4874	-0.4946934
122	0xbf854360	-1.0411186
123	0xbf6adef8	-0.91746473
124	0xbf853e95	-1.0409724
125	0xbe4ac447	-0.19801436
126	0xbf73dd51	-0.9525958
127	0xbf0c2ed8	-0.5475898
128	0xbf33a309	-0.70170647
129	0xbf3e2a21	-0.74283034
130	0xbe29ce1b	-0.16582529
131	0xbe679e95	-0.22619088
132	0xbf089ba3	-0.5336248
133	0xbebc4ebe	-0.36778826
134	0xbf2b70bf	-0.6696891
135	0xbdac01a4	-0.083987504
136	0xbe2d7e58	-0.16942728
137	0xbf6f20a6	-0.9340919
138	0xbf48066e	-0.7813481
139	0xbe12c00f	-0.14331077
140	0xbee1605e	-0.44018835
141	0xbf041306	-0.5159153
142	0xbf02734a	-0.5095717
143	0xbf066874	-0.5250313
144	0xbf06d20b	-0.5266425
145	0xbf4d835a	-0.8027855
146	0xbd06821a	-0.03283892
147	0xbf12c164	-0.5732634
148	0xbf0799de	-0.5296916
149	0xbf12fbee	-0.57415664
150	0xbf2c9bb8	-0.6742511
151	0xbf18ee0a	-0.5973822
152	0xbf59ec24	-0.85125947
153	0xbe7a791f	-0.24460267
154	0xbf12f2f9	-0.57401997
155	0xbec5c1e1	-0.3862448
156	0xbf3e9981	-0.7445298
157	0xbd1a2641	-0.037634138
158	0xbf09e3f7	-0.5386347
159	0xbea7b6f6	-0.32756776
160	0xbf0fdfe6	-0.56201017
161	0xbef8e9b2	-0.48615795
162	0xbf395475	-0.72394496
163	0xbf3606e1	-0.71104246
164	0xbf863f9a	-1.048816
165	0xbee97419	-0.45596388
166	0xbec41428	-0.38296628
167	0xbdbd548b	-0.09244641
168	0xbefc3da8	-0.4926579
169	0xbf6c0852	-0.92200196
170	0xbf74d986	-0.95644414
171	0xbe52df34	-0.20592958
172	0xbdba749a	-0.09104271
173	0xbd258b1d	-0.040415872
174	0xbed07d18	-0.4072044
175	0xbe81c04a	-0.25342017
176	0xbf91f76f	-1.1403636
177	0xbed78ba1	-0.42098716
178	0xbee37c55	-0.44430795
179	0x3c9aa269	0.018876271
180	0xbf029abb	-0.5101735
181	0xbecb28d1	-0.39679578
182	0xbdecdc6f	-0.11565482
183	0xbc2b0482	-0.010438086
184	0xbe6a374e	-0.2287266
185	0xbf99bef2	-1.2011397
186	0xbf404fb8	-0.7512164
187	0xbeca9f6f	-0.39574763
188	0xbf278220	-0.6543293
189	0xbf4820a2	-0.78174794
190	0xbf3a58fe	-0.7279204
191	0xbf4f5790	-0.80992985
192	0xbefa757a	-0.48917753
193	0xbf762f0a	-0.96165526
194	0xbe4979e6	-0.19675407
195	0xbed3cd79	-0.413677
196	0xbf2840ca	-0.6572386
197	0xbf6362e0	-0.88822746
198	0xbf6fed47	-0.9372143
199	0x3d8084a0	0.06275296
200	0xbf3d4f6f	-0.7394933
201	0xbe954c06	-0.29159564
202	0xbef25aa2	-0.47334772
203	0xbee370ca	-0.4442199
204	0xbf4a5f34	-0.7905152
205	0xbf4e6ee9	-0.80637985
206	0xbf0f85c3	-0.5606348
207	0xbf3aad07	-0.7292027
208	0xbe9e3db2	-0.30906445
209	0xbf5a67fd	-0.85314924
210	0xbea7cebb	-0.3277491
211	0xbf0d5fc9	-0.5522428
212	0xbebf2d38	-0.37339187
213	0xbf1cacc1	-0.612011
214	0xbf274587	-0.65340465
215	0xbebcacdd	-0.36850634
216	0xbf62cc4b	-0.88592976
217	0xbf44a159	-0.76808697
218	0xbc51084f	-0.012758329
219	0xbf4ee28b	-0.8081443
220	0xbf0842b0	-0.5322676
221	0xbf32bdae	-0.6982068
222	0xbe1f95a3	-0.15584426
223	0xbf6a0658	-0.9141593
224	0x3e4b1ca4	0.19835144
225	0xbf5b4b24	-0.8566153
226	0xbf082ec4	-0.5319636
227	0xbef669d7	-0.48127624
228	0xbf1765e7	-0.59139866
229	0xbe2e7c66	-0.17039642
230	0xbf093d24	-0.5360892
231	0xbe6a81c1	-0.2290106
232	0xbf2a1663	-0.6644041
233	0xbdf2ef1f	-0.11862015
234	0xbf690bcb	-0.9103362
235	0xbe9900e9	-0.29883507
236	0xbf033098	-0.51246023
237	0xbf1eb6d4	-0.61997724
238	0xbe4ebdd1	-0.20189597
239	0xbe56bb8e	-0.20969984
240	0xbf0749e8	-0.52847147
241	0xbe897f3a	-0.2685488
242	0xbed02de6	-0.40660018
243	0xbeb30489	-0.34964398
244	0x3cb0fb87	0.021604313
245	0xbecf4395	-0.40481248
246	0xbf22afbd	-0.63549405
247	0xbf103047	-0.56323665
248	0xbf1db399	-0.6160217
249	0xbeb950dd	-0.36194506
250	0xbe06abeb	-0.13151519
251	0xbe62d72c	-0.22152394
252	0xbf1188ec	-0.5684955
253	0xbf40be43	-0.75290316
254	0xbef885b6	-0.48539513
255	0xbf481e0c	-0.7817085

l2.weight f4 [128, 256]
0	0xbe2ca135	-0.1685837
1	0x3f4c3800	0.7977295
2	0xbf9901b7	-1.1953648
3	0x3e1eb867	0.15500031
4	0xbc3468fd	-0.011011359
5	0x3efeccdf	0.4976568
6	0xbdf3e2a3	-0.11908462
7	0xbe1668f2	-0.14688471
8	0x3eabaa40	0.33528328
9	0xbeb4dd92	-0.35325295
10	0x3ed73db0	0.4203925
11	0x3de5764f	0.11204206
12	0xbedcebe4	-0.4314872
13	0x3e529f7f	0.20568655
14	0xbdd7b7d3	-0.105331086
15	0xbef18014	-0.47168028
16	0x3e57961e	0.21053359
17	0xbf2d659d	-0.67733175
18	0xbf622dfc	-0.88351417
19	0xbf5f8b06	-0.8732151
20	0x3dfdbf08	0.12389952
21	0x3dd67fbc	0.10473582
22	0xbe07fe7a	-0.13280669
23	0x3e917844	0.28412068
24	0xbf43a7c8	-0.7642789
25	0xbdf862e7	-0.12128239
26	0xbf5d92a8	-0.86551905
27	0x3e8815ee	0.2657923
28	0x3e431954	0.1905263
29	0x3ee3c69a	0.44487458
30	0x3f454867	0.770636
31	0x3eddc86a	0.43316966
32	0xbec703af	-0.38869998
33	0xbf72af75	-0.94798976
34	0x3f79a0d4	0.9751103
35	0x3dd11f06	0.102109954
36	0x3dce6983	0.100787185
37	0xbbe1d4db	-0.0068918294
38	0xbb8834a2	-0.004156665
39	0xbc9279b9	-0.017880308
40	0x3ed5aed9	0.4173496
41	0xbc7123cd	-0.014718008
42	0xc06e137b	-3.719939
43	0x3f54e4ea	0.83161795
44	0x3e3c4753	0.18386583
45	0xbdbed5a6	-0.09318094
46	0xc02be4c2	-2.6858373
47	0xbf39b5cf	-0.7254304
48	0xbf141477	-0.57843727
49	0xbc1e1ba0	-0.009650141
50	0x3d45b8cb	0.048271935
51	0xbec085e9	-0.37602165
52	0x3f2b9c98	0.6703582
53	0xbf8f5902	-1.1199038
54	0xbd800c81	-0.06252385
55	0xbcf93d42	-0.030424718
56	0xbe71f36e	-0.23628017
57	0x3ea52a01	0.3225861
58	0x3e84fd82	0.2597466
59	0xbf06fd65	-0.527304
60	0x3e995392	0.29946572
61	0x3e5bb9d0	0.214576
62	0xbfca50a0	-1.5805855
63	0x3f280ee7	0.6564774
64	0x3f7a5aad	0.9779461
65	0xbdb4fe16	-0.088375255
66	0x3ef82e66	0.484729
67	0xbfdb54b8	-1.7135229
68	0x3d30cc12	0.043163367
69	0x3e804229	0.25050476
70	0xbe03c069	-0.12866367
71	0x3ea8f3eb	0.32998595
72	0x3f61b9ea	0.8817431
73	0x3eaf4d62	0.34238726
74	0x3d1f8c2f	0.03895205
75	0xbfabf48c	-1.3434005
76	0xbf4ca19f	-0.79934114
77	0x3ed95d16	0.4245383
78	0x3f743265	0.95389396
79	0xbea6d235	-0.3258225
80	0x3e059a66	0.1304718
81	0xc040449d	-3.0041878
82	0xbfdaa6f3	-1.7082199
83	0xbeb7f453	-0.35928592
84	0xbf03aa95	-0.5143216
85	0xbfe7084c	-1.8049407
86	0x3a53157f	0.00080522144
87	0xbe72af2d	-0.23699637
88	0xbf4c1d41	-0.7973214
89	0x3f615071	0.8801337
90	0x3dcc8e78	0.09988111
91	0x3f8234ae	1.0172327
92	0x3f8f14e8	1.1178255
93	0x3d762f77	0.06010386
94	0xbeefc7ee	-0.46832222
95	0xbf60a6e7	-0.8775467
96	0xbea786ea	-0.3272012
97	0xbfe238d9	-1.7673599
98	0x3dd0dccb	0.10198363
99	0xc019ffe5	-2.4062436
100	0xbf752f05	-0.9577487
101	0x3ec5f029	0.3865979
102	0xc00ce236	-2.2013068
103	0xbea83acc	-0.32857358
104	0xbf47c42b	-0.78033704
105	0xbd5643ea	-0.05231086
106	0x3ef42cbc	0.4769038
107	0x3e93c049	0.2885764
108	0xbdc5ea4b	-0.096638285
109	0xbebafafd	-0.36519614
110	0xbe960e14	-0.29307616
111	0x3db79335	0.089636244
112	0x3e49b3ae	0.19697449
113	0xbf133ecb	-0.5751769
114	0xbe955535	-0.2916657
115	0xbcb124f5	-0.021624068
116	0xbfcd7b9b	-1.6053346
117	0x3f59f0c1	0.85132986
118	0x3f07206c	0.52783847
119	0xbe701910	-0.2344706
120	0x3f0ea763	0.5572416
121	0xbf70dacc	-0.9408386
122	0x3d736f93	0.059432577
123	0xbf67736a	-0.9041048
124	0xc040cdaf	-3.012554
125	0xbf9b7504	-1.2145085
126	0xbfebb421	-1.8414346
127	0xc011c41e	-2.277595
128	0xbcce4770	-0.025180548
129	0x3d8f7611	0.07004941
130	0xbdd64275	-0.104618944
131	0xbd23432c	-0.039858982
132	0xbefe85b3	-0.4971138
133	0x3f06a024	0.52588105
134	0x3e5f1bd4	0.2178796
135	0xbe4a90e8	-0.1978184
136	0x3db90619	0.09034366
137	0x3d45c53f	0.04828381
138	0xbd9065fd	-0.07050703
139	0xbfe9e45f	-1.8272818
140	0x3f0b6a30	0.54458904
141	0xbdfdc8fd	-0.12391851
142	0xbf04d045	-0.51880294
143	0x3e092d71	0.13396241
144	0xbe3d423f	-0.18482302
145	0x3f9ab04c	1.2085052
146	0xbb8f0613	-0.004364738
147	0x3fa4d67c	1.2877955
148	0xbf27a0ab	-0.65479535
149	0xc02d64b9	-2.7092726
150	0x3f8b3871	1.08766
151	0x3c336473	0.010949242
152	0xbe9b0076	-0.3027379
153	0xbf9b93c6	-1.2154472
154	0x3e8bdd01	0.2731705
155	0xbe24e00b	-0.1610109
156	0xbe8dbd45	-0.27683464
157	0x3f06027e	0.5234755
158	0xbe61e0d7	-0.22058426
159	0x3c4d6702	0.012536766
160	0xbd8554cf	-0.065103166
161	0x3bdacfb9	0.0066775945
162	0xbdd676a1	-0.104718454
163	0xbfdcafbe	-1.7241132
164	0x3e2c646d	0.16835184
165	0x3de1ba42	0.11021854
166	0xbe8f855b	-0.2803143
167	0xbdee276f	-0.11628615
168	0x3f091024	0.53540254
169	0xbeb83e1c	-0.35984886
170	0xbdb1ac70	-0.08675468
171	0x3ea8aa4d	0.3294243
172	0xbf3f1077	-0.746345
173	0x3e8c0005	0.27343765
174	0xbe073c50	-0.13206601
175	0xbd9a0d7a	-0.07522102
176	0xbe89f4d2	-0.26944596
177	0x3e5a1362	0.21296456
178	0xbe13d4cf	-0.14436649
179	0x3c7133ec	0.014721852
180	0x3e5ed863	0.21762232
181	0xbe77f130	-0.242131
182	0xbf164db0	-0.5871229
183	0xbf20c9cd	-0.62807924
184	0x3eefd2e8	0.46840596
185	0xbc4d9ed5	-0.012550076
186	0xc016feb6	-2.3592963
187	0xbe0b7e31	-0.13622357
188	0xbf5ab57d	-0.8543318
189	0x3db9a5c9	0.09064824
190	0xbe38614a	-0.18005863
191	0xbe354665	-0.17702635
192	0xbe3d3445	-0.1847697
193	0xbee50c59	-0.44735983
194	0x3e0fa2e1	0.14026977
195	0xbf12a012	-0.572755
196	0xbebeeb64	-0.37288964
197	0xbe6c25b4	-0.23061258
198	0xbf850d2a	-1.0394642
199	0xc07b9bf9	-3.9313948
200	0xbe458d9b	-0.192923
201	0x3e028bf5	0.12748702
202	0x3e1f169b	0.15535967
203	0xbccdbfea	-0.025115926
204	0xbf1b796d	-0.60732156
205	0xbebb1c8a	-0.3654521
206	0xbe4baec9	-0.19890894
207	0x3c7a1f71	0.015266285
208	0xbfb22dd1	-1.3920232
209	0xbdd5fb0f	-0.10448276
210	0x3d11db1a	0.035609342
211	0x3e4a79f3	0.19773082
212	0x3f2ebc29	0.6825586
213	0xbeb1e434	-0.34744418
214	0x3ebd2a33	0.36946258
215	0xbf1f4f41	-0.62230307
216	0x3f85487b	1.0412744
217	0x3f363a77	0.7118296
218	0xbfb0e451	-1.3819677
219	0xbf160073	-0.58594435
220	0xbdde62f0	-0.108587146
221	0x3fc3f434	1.53089
222	0x3dfb92cd	0.122838594
223	0xbe7a6bee	-0.24455234
224	0x3ed3afdb	0.41345105
225	0x3e88612f	0.26636645
226	0xbf6e228c	-0.93021464
227	0x3e1a5a37	0.15073477
228	0x3f15ecd5	0.585645
229	0x3e5de7a7	0.216704
230	0xbf3e18d3	-0.7425663
231	0x3c9e6b88	0.019338384
232	0x3ec380d9	0.3818424
233	0xbe689dca	-0.22716442
234	0xbee52ee7	-0.44762346
235	0x3e5f734e	0.21821329
236	0xbe572a26	-0.21012172
237	0xbeee2d9f	-0.4651918
238	0xbe8e724c	-0.27821577
239	0x3ee8e5cb	0.45487818
240	0x3f2b9185	0.6701892
241	0xbf3bda7a	-0.73380244
242	0x3d9b5ae5	0.07585696
243	0xbf9196fa	-1.1374199
244	0xbf943295	-1.1577936
245	0xbd534f69	-0.051589403
246	0xbe7ad006	-0.24493417
247	0x3ed55bad	0.41671506
248	0x3d211981	0.039330963
249	0x3d9da695	0.076977886
250	0x3dc75451	0.09732879
251	0x3e116dc2	0.14202026
252	0x3eec3136	0.46131295
253	0x3e678805	0.22610481
254	0xbe12f81f	-0.14352463
255	0xbd4267af	-0.04746216

l2.bias f4 [128]
0	0x3dc5b020	0.09652734
1	0xbe5d24e9	-0.21596111
2	0xbb9d5609	-0.004801516
3	0xba8c5a96	-0.0010708149
4	0xbcedd9d3	-0.02903453
5	0x3df48847	0.11940055
6	0x3eb2407f	0.34814832
7	0x3d1ceb71	0.038310472
8	0x3df0544f	0.117348306
9	0x3e8c990b	0.27460513
10	0x3e79960f	0.24373649
11	0x3dcfcd16	0.10146539
12	0xbd3cbf46	-0.04608085
13	0x3e8a81b0	0.2705207
14	0x3e3a588c	0.1819784
15	0xbd023d5e	-0.031796806
16	0x3e463c80	0.19359016
17	0xbde9a92b	-0.11409219
18	0x3eaf1413	0.34195003
19	0x3c840bf3	0.01611898
20	0x3dd72069	0.105042286
21	0xbea7b58c	-0.32755697
22	0x3e665f8d	0.22497387
23	0xbd5a0b7d	-0.053233612
24	0xbda2b39b	-0.07944413
25	0x3e8ce461	0.2751799
26	0x3dc0de0a	0.094173506
27	0x3e24abb0	0.16081119
28	0xbd0e4c04	-0.034740463
29	0xbeb96fe2	-0.36218172
30	0xbd0095f2	-0.031393
31	0x3e67d935	0.22641452
32	0x3e02cbd5	0.12773068
33	0xbd7d2392	-0.0618015
34	0xbb4f0d5d	-0.0031593658
35	0x3e737406	0.23774728
36	0x39b2a88f	0.00034076392
37	0x3d4deacf	0.05027276
38	0x3c8d9cd0	0.017286688
39	0xbd78dd83	-0.060758125
40	0x3eaff5ad	0.34367123
41	0xbd0aff26	-0.033934735
42	0x3e29b8fb	0.1657447
43	0x3e00a1d7	0.12561737
44	0x3d326ab7	0.043558802
45	0xbda234bc	-0.079202145
46	0xbe801874	-0.25018656
47	0x3e641d58	0.22276819
48	0x3b198467	0.0023424865
49	0xbcf20dde	-0.029547628
50	0xbe2e1c7d	-0.17003055
51	0x3e85c16b	0.2612413
52	0x3cee14f1	0.02906272
53	0xbe3ea5cd	-0.18617935
54	0x3e66b54a	0.22530094
55	0xbce9c63f	-0.028536914
56	0xbd21bf55	-0.03948911
57	0xb9e2a6da	-0.00043230393
58	0xbe093d07	-0.13402186
59	0xbcf931b6	-0.030419212
60	0xbe50aed0	-0.20379186
61	0xbe09eee3	-0.13470034
62	0xbce3102f	-0.027717678
63	0x3ea30523	0.31839857
64	0x3eaa60a5	0.3327686
65	0x3e5a783f	0.21334933
66	0xbcd1b49a	-0.025598813
67	0x3df598ba	0.11992021
68	0xbdd73c89	-0.10509593
69	0x3b7ef0fd	0.0038900964
70	0xbd2a3f94	-0.04156454
71	0x3db3bd6d	0.087763645
72	0xbca2bf6e	-0.019866671
73	0x3d86c745	0.065809764
74	0x3d443a95	0.04790743
75	0x3d8abaf0	0.06773937
76	0xbdf68456	-0.1203696
77	0x3e1132df	0.14179562
78	0xbdad8fcb	-0.08474692
79	0xbc481048	-0.012210913
80	0xbcf603bf	-0.030031083
81	0x3ca8f046	0.020622384
82	0xbd85cd82	-0.06533338
83	0xbd21bdf6	-0.0394878
84	0xbd80017b	-0.062502824
85	0x3cc2324b	0.023705622
86	0xbd88bb6f	-0.06676375
87	0xbda14b90	-0.078757405
88	0x3dc98b48	0.09841019
89	0x3c173657	0.009229264
90	0x3e4b6a4f	0.19864772
91	0xbc39c1e6	-0.011337733
92	0x3c557fd2	0.013030963
93	0x3b9f8a00	0.004868746
94	0x3da73abf	0.08165502
95	0x3d8ea075	0.069641985
96	0xbcc3f4ad	-0.023920381
97	0x3eab899a	0.3350342
98	0x3dbb0de7	0.09133511
99	0x3da1414c	0.078737825
100	0x3db09443	0.08622029
101	0xbe49bbbd	-0.19700523
102	0x3e59cd1d	0.21269651
103	0x3eb59cfd	0.35471335
104	0xbd5561c3	-0.052095186
105	0x3eb2065c	0.34770477
106	0xbd7e54c4	-0.062092558
107	0x3c12c262	0.008957477
108	0x3c6baebc	0.014384922
109	0x3e098ffc	0.13433832
110	0x3e61f184	0.22064787
111	0xbed5013f	-0.41602513
112	0x3e346acc	0.17618865
113	0xbd8b97ad	-0.06816039
114	0x3d6aadea	0.057294764
115	0x3e3ff4f9	0.18745793
116	0x3e71f6c4	0.2362929
117	0x3e5a5399	0.21320952
118	0x3d74470e	0.059638076
119	0x3d5f7f97	0.05456504
120	0x3e520c1c	0.20512432
121	0xbc03f275	-0.008053412
122	0x3d7e30d8	0.0620583
123	0x3d8d5131	0.06900252
124	0x3d8efc2e	0.06981693
125	0xbc2fd420	-0.010731727
126	0xbd68eaf2	-0.056864686
127	0x3e1cd6f2	0.1531637

mean.weight f4 [2, 128]
0	0xbec9ed6c	-0.3943895
1	0xbf29321c	-0.66092086
2	0xbf3f7f43	-0.7480356
3	0x3d0b6023	0.03402723
4	0x3d8c39f2	0.0684699
5	0x3f8f754b	1.120767
6	0xc0191893	-2.392125
7	0xbf742b4c	-0.95378566
8	0x3ee78b36	0.45223397
9	0xbbf73b5a	-0.007544917
10	0x3f58e7a5	0.8472846
11	0x3eddedd9	0.43345526
12	0x3ed7e99d	0.4217042
13	0x3f17fdd7	0.59371704
14	0x3f222656	0.63339746
15	0x3e3ab658	0.18233621
16	0xbf950ddc	-1.1644855
17	0x3ebe06a8	0.37114453
18	0x3f3e3db3	0.74312896
19	0x3e13ecdc	0.14445823
20	0xbf5878b3	-0.8455917
21	0x3fd781cf	1.683649
22	0x3f800267	1.0000733
23	0x3f5b8441	0.8574868
24	0x3f026748	0.50938845
25	0xbf68677c	-0.90782905
26	0xbf49651e	-0.7866992
27	0xbeaa4e0c	-0.3326267
28	0xbd4eef8d	-0.050521422
29	0xbdb63321	-0.08896471
30	0xbe4b75e5	-0.19869192
31	0x3ee07941	0.4384251
32	0x3e93ef3b	0.28893456
33	0xbc991329	-0.018685894
34	0xbed6aa34	-0.4192673
35	0x3f82bedf	1.0214499
36	0xbd3637d1	-0.044486824
37	0xbf21aeaf	-0.6315717
38	0xbed7fe47	-0.42186186
39	0x3e76b428	0.24092162
40	0x3dccbd1e	0.09997009
41	0x3d9b708e	0.075898275
42	0x3cc2ba42	0.023770455
43	0x3fc002de	1.5000875
44	0xbef941da	-0.48683053
45	0x3d579c7d	0.052639473
46	0x3f2f5302	0.68486035
47	0xbef3da8b	-0.47627673
48	0x3f1ff366	0.6248077
49	0x4009027b	2.1407764
50	0x3e4d56f2	0.20052698
51	0x3d6e2368	0.058139235
52	0x3ee2b7e3	0.4428092
53	0x3e5fc837	0.2185372
54	0x3fa78a8e	1.3089159
55	0xbf3c9205	-0.7366031
56	0x3d807cd5	0.0627381
57	0x3cc20e62	0.023688499
58	0x3f6b017c	0.9179914
59	0x3f44af0c	0.768296
60	0x3f5f13e4	0.87139726
61	0x3effca15	0.49958864
62	0x3c80f819	0.015743302
63	0x3f79c7f8	0.97570753
64	0xbe876ab1	-0.26448587
65	0x3f46dfb2	0.7768508
66	0x3e2042f2	0.15650538
67	0xbde6d8b8	-0.112718046
68	0x3e728204	0.2368241
69	0xbca22a84	-0.019795664
70	0xbc022feb	-0.007945995
71	0xbf6d8855	-0.9278615
72	0x401aac21	2.416756
73	0xbde4303d	-0.11142013
74	0xbffb4195	-1.9629389
75	0xc098638e	-4.7621527
76	0xbfa678a5	-1.3005568
77	0xc0a09d72	-5.0192194
78	0x3f1f0ede	0.6213206
79	0x3cc923e9	0.024553256
80	0xbf06cbb2	-0.52654564
81	0xbf73f984	-0.95302606
82	0xbc88bd35	-0.016691783
83	0xbceac6a3	-0.02865917
84	0x3f7a3169	0.97731644
85	0xbeb5abd2	-0.3548265
86	0x3efea7c3	0.49737367
87	0xbd0e8be4	-0.03480138
88	0xbfd2e6d8	-1.6476698
89	0xbcfe8160	-0.03106755
90	0x3fa58a98	1.293292
91	0x3d55c6c9	0.05219153
92	0xbfd8bd21	-1.6932718
93	0x39f611ac	0.00046933943
94	0xbf28b2e0	-0.6589794
95	0x3edf3419	0.43594435
96	0xbd5b8efe	-0.053603165
97	0x3f488fa0	0.78344154
98	0xc011bc69	-2.2771246
99	0xbf054a54	-0.5206654
100	0xbf6d7106	-0.92750585
101	0x3f74b13a	0.95582926
102	0x3facf9dd	1.3513752
103	0xbf3dc119	-0.7412277
104	0xbea26621	-0.31718543
105	0x3eee7482	0.46573263
106	0x3fc113cb	1.5084165
107	0x3f5c6ffd	0.8610838
108	0xbe609f60	-0.21935797
109	0xbf5a9326	-0.8538078
110	0xbf8ba822	-1.0910685
111	0x3eca38b6	0.39496392
112	0xbf59c84d	-0.8507126
113	0x3d86116b	0.06546291
114	0xbf8d4db6	-1.103934
115	0xbe42e524	-0.19032723
116	0xbecbfa37	-0.39839336
117	0x3f3dbef2	0.74119484
118	0xbf894b3c	-1.0726085
119	0xc09c197e	-4.878112
120	0x3f07514e	0.52858436
121	0xbeec266b	-0.4612306
122	0x407c341b	3.9406803
123	0xbe9b3453	-0.30313358
124	0xc08dc61a	-4.4304323
125	0xc044ea48	-3.0767994
126	0x3daa6e9d	0.08321879
127	0xc0e12002	-7.035157
128	0x40381518	2.8762875
129	0x3d5579e3	0.052118193
130	0x3d4f5f7d	0.050628174
131	0xbd1d5b01	-0.038416866
132	0xc025e89c	-2.5923223
133	0xc05d0438	-3.4533825
134	0xbf79473d	-0.97374326
135	0xbe80e351	-0.2517343
136	0x3e4f4117	0.20239674
137	0x3fd73238	1.68122
138	0x3d730478	0.059330434
139	0x3fe05690	1.7526417
140	0x3fde8285	1.7383581
141	0xbe8c30da	-0.2738102
142	0xbf686f32	-0.9079467
143	0x401809b5	2.3755925
144	0x3fdbe670	1.7179699
145	0x3f86d8b0	1.0534878
146	0xbda08240	-0.07837343
147	0x402f46cc	2.738696
148	0xbcef9a9a	-0.029248524
149	0xbe9266f8	-0.28594184
150	0x3e4c0755	0.19924672
151	0xbc16e861	-0.009210677
152	0x3ea35b8c	0.31905782
153	0xbfc43b70	-1.5330639
154	0x3f160a20	0.586092
155	0x3fce0944	1.6096578
156	0x3da582fc	0.08081624
157	0xbf610e37	-0.87912315
158	0xbf2973d4	-0.66192365
159	0xc043dfcc	-3.0605345
160	0xc0043bd2	-2.0661511
161	0xbcaa8e16	-0.020819705
162	0x3fd9cb61	1.7015191
163	0xbc51932d	-0.012791437
164	0x3d4889e7	0.04895964
165	0xbed09254	-0.4073664
166	0xbf89daeb	-1.0769933
167	0x3dd40d44	0.10354093
168	0x3d1e25b9	0.038610194
169	0x3d722975	0.059121568
170	0xbf6b2d1a	-0.91865695
171	0x3e3483c2	0.17628387
172	0xbfa61de2	-1.297787
173	0xbd07248e	-0.032993846
174	0x406fbc08	3.7458515
175	0xbf1f3e04	-0.62204003
176	0x400b8126	2.1797576
177	0x3eb59e30	0.3547225
178	0xc06962e3	-3.6466606
179	0xc0039f75	-2.0566075
180	0x3f919c44	1.1375813
181	0x3f8de124	1.1084332
182	0xbb3fb49c	-0.0029251939
183	0x3e008ab6	0.12552914
184	0xbc2b8762	-0.0104692895
185	0x3da5b8ee	0.08091913
186	0x3e2624fe	0.16225049
187	0xbf5722bd	-0.8403738
188	0x3f0241bd	0.5088156
189	0x3dd9c652	0.1063353
190	0x3fd0e3cd	1.6319519
191	0x3dc81e2c	0.0977138
192	0x3d9119d4	0.070850044
193	0x3eabe594	0.33573592
194	0xbfc0bb8c	-1.5057235
195	0xc020042c	-2.5002546
196	0xbf2d1257	-0.6760611
197	0x3cdf4ead	0.027259195
198	0x3d38fc45	0.045162458
199	0x3fbcad5d	1.4740406
200	0x406c3abf	3.6910856
201	0xc00017cd	-2.0014527
202	0x3f45f40f	0.7732553
203	0x4012a58f	2.291355
204	0xbfe19c08	-1.7625742
205	0x3f67bd67	0.9052338
206	0xbfb8afb7	-1.4428624
207	0x3cce1e1f	0.025160847
208	0xbb1e552e	-0.0024159658
209	0x3f2f5927	0.6849541
210	0x3c240a74	0.010012258
211	0x3bc13f2b	0.005897423
212	0x3f1205c5	0.57040054
213	0x3f8d1fa3	1.102528
214	0x3f6b8ea3	0.9201452
215	0xbd6a641c	-0.057224378
216	0xbf62d9a3	-0.8861334
217	0xbc9d645f	-0.0192129
218	0xc075214b	-3.830157
219	0xbd0ea11d	-0.03482162
220	0x3f8ef24f	1.1167697
221	0x3b29068e	0.002579126
222	0xbf516dce	-0.81808174
223	0xc03edb28	-2.9821262
224	0x3cfc1824	0.03077323
225	0x3de19bc5	0.11016039
226	0x3efe59b5	0.49677816
227	0x3f5340a8	0.8252053
228	0x3de59332	0.11209716
229	0x3f0a6811	0.5406504
230	0xbdfc7f6e	-0.12328993
231	0xbe1941fd	-0.14966579
232	0x3e1e2621	0.15444233
233	0xbe803b30	-0.25045156
234	0x3e8d988a	0.2765544
235	0xbec59a15	-0.38594118
236	0x3f82e58a	1.02263
237	0xbeb91f63	-0.3615676
238	0x3e8d1cf4	0.27561152
239	0xbf986766	-1.1906555
240	0x3e5fddf7	0.21862017
241	0x39fcf44d	0.00048247204
242	0xbe3436e8	-0.1759907
243	0xbf3fecee	-0.749709
244	0xbecf9d86	-0.40549868
245	0x3dac16f8	0.084028184
246	0x3fa65a49	1.2996303
247	0xbe055188	-0.13019383
248	0xbff50567	-1.9142274
249	0xbf7e08d8	-0.99232244
250	0xbf92cac6	-1.1468132
251	0x3f425dd9	0.7592445
252	0xbf1b1342	-0.6057626
253	0x3fbb7ecb	1.4648069
254	0x3d3844c4	0.044987455
255	0xbffeb5ee	-1.989927

mean.bias f4 [2]
0	0xbda7d4b8	-0.0819487
1	0x3e2a3848	0.16623032

std.weight f4 [2, 128]
0	0xbd645d9a	-0.055753328
1	0xbcf4f358	-0.029901192
2	0xbd2fcda1	-0.042920712
3	0xbd47014d	-0.048585225
4	0x3c49fb1a	0.012327934
5	0x3d425568	0.04744473
6	0x3e09cb7c	0.1345653
7	0xbd27a742	-0.040930994
8	0x3bc7fd32	0.0061031813
9	0x3b662891	0.0035119394
10	0x3d34f4f7	0.04417893
11	0x3c36ebbc	0.011164602
12	0xbd60bb38	-0.054866046
13	0x3cf188d9	0.0294842
14	0x3c0b3798	0.008497141
15	0x3d29f314	0.041491583
16	0xbd62822f	-0.055299934
17	0x3c997932	0.018734548
18	0x3cff82eb	0.031190356
19	0xbd23ff5d	-0.040038455
20	0xbd4c15f0	-0.04982561
21	0x3e0906d0	0.13381505
22	0x3dbe08f5	0.09279052
23	0x3d033d8f	0.03204113
24	0x3d24a26e	0.040193968
25	0xbd7d83d8	-0.061893314
26	0xbd569271	-0.05238575
27	0x3c2b8186	0.0104678925
28	0xbd0359a7	-0.03206792
29	0x3d20b61f	0.039236184
30	0x3be79b4d	0.007068074
31	0x3b55899d	0.0032583245
32	0x3c952e52	0.018210564
33	0xbc25c5ee	-0.010117991
34	0xbd78e1ad	-0.060762096
35	0x3d8b9a01	0.06816483
36	0xbd2632f0	-0.04057592
37	0xbc806af5	-0.015676001
38	0xbd39f7a5	-0.045402188
39	0xbc3a8a92	-0.011385577
40	0xbe6c1bdb	-0.23057501
41	0xbd8f1ae6	-0.06987552
42	0xbcb93547	-0.022608412
43	0x3d9ffcfe	0.07811926
44	0xbd2a9384	-0.041644588
45	0x3d84ef8a	0.06491001
46	0x3e25b274	0.16181356
47	0xbc8bee7e	-0.017081495
48	0x3b003831	0.0019564743
49	0x3e076d44	0.13225275
50	0x3cbde274	0.02317927
51	0xbd92fef1	-0.071775325
52	0xbd253d4f	-0.04034167
53	0xbd21ca2f	-0.039499458
54	0x3d713a56	0.058893524
55	0x3a071203	0.0005152525
56	0xbb85ee4a	-0.004087244
57	0xbce80265	-0.028321454
58	0x3b86489b	0.0040980107
59	0x3d6a1891	0.057152335
60	0x3d70214e	0.05862551
61	0x3c344630	0.011003062
62	0xbbf70248	-0.0075381137
63	0x3d32768f	0.043570098
64	0xbe65eb4f	-0.22453044
65	0x3d31d9b3	0.043420505
66	0xbd367ca1	-0.04455245
67	0xbd0f1dfa	-0.034940697
68	0x3be8a354	0.0070995484
69	0x3c2efa97	0.010679862
70	0xbd5ce3fc	-0.05392836
71	0x3cfb377e	0.03066611
72	0x3e771fc6	0.24133214
73	0x3cbe4c50	0.023229748
74	0x3e83c786	0.25738162
75	0x3e4782e8	0.1948353
76	0x3d9cc9b1	0.07655657
77	0x3e1f5fd4	0.155639
78	0x3d26e2c8	0.04074362
79	0xbd73af63	-0.059493434
80	0x3b890d46	0.0041824905
81	0xbd7647e1	-0.060127143
82	0x3cb63f94	0.022247113
83	0x3cfee843	0.03111661
84	0x3d3feb0e	0.046855025
85	0xbc997770	-0.01873371
86	0x3cde7ce9	0.027159171
87	0x3d6163c1	0.055026773
88	0xbaaaf228	-0.0013042139
89	0x3d64c541	0.05585218
90	0xbd5c5483	-0.053791534
91	0xbd902e89	-0.07040126
92	0xbd8173e4	-0.063209325
93	0x3c1ec0d0	0.009689525
94	0xbd030441	-0.03198648
95	0x3c6d9479	0.014500731
96	0x3d3aeae9	0.045634184
97	0x3d0ff6cb	0.03514747
98	0xbe210399	-0.15724029
99	0xbb1cd22c	-0.0023928983
100	0xbd4051b9	-0.046952937
101	0x3d52a467	0.051426318
102	0x3dc1b699	0.09458656
103	0xbd8b54a5	-0.06803254
104	0x3c98190a	0.018566627
105	0x3d10e580	0.03537512
106	0x3e20d17f	0.15704916
107	0x3ce17d2d	0.027525509
108	0xbcc556dd	-0.024089271
109	0xbce88c29	-0.028387146
110	0xbd3e5a1a	-0.046472646
111	0x3d2d190e	0.042260222
112	0xbbdd014e	-0.0067445403
113	0xbd999d0b	-0.07500657
114	0xbd0cb671	-0.034353677
115	0xbb267e2a	-0.002540479
116	0xbcd1a31d	-0.025590474
117	0x3b39e875	0.0028367315
118	0xbcab0b9d	-0.020879561
119	0x3e36dee5	0.17858465
120	0x3cbb839d	0.022889907
121	0xbd07139c	-0.032977685
122	0x3e4ba186	0.19885835
123	0xbb52e2f2	-0.0032178727
124	0x3eb60481	0.3555031
125	0x3f07f523	0.53108424
126	0x3d950fae	0.07278381
127	0x3ea0cf5d	0.31408206
128	0x3e902ff9	0.281616
129	0x3b1dcd3e	0.0024078633
130	0xbc998e3c	-0.01874458
131	0x3d8c7461	0.06858135
132	0x3e60958d	0.21932049
133	0x3e871cde	0.2638921
134	0x3d5b36d0	0.05351907
135	0xbc71564e	-0.014730049
136	0x3dfa34ae	0.12217079
137	0xbd3a8046	-0.045532487
138	0xbcb2b082	-0.021812681
139	0x3d7e268e	0.062048487
140	0x3e24f124	0.16107613
141	0x3cabdb2f	0.020978538
142	0x3acaafd4	0.0015463778
143	0x3e52f5d4	0.20601588
144	0x3e22e813	0.15908842
145	0x3d594822	0.053047307
146	0x3d052651	0.032507244
147	0x3df27c11	0.1184007
148	0xbd1ff953	-0.039056133
149	0x3dacd79c	0.08439562
150	0x3d8ce3aa	0.06879361
151	0x3d2e0884	0.04248859
152	0xbcd74872	-0.026279662
153	0xbbf6ed46	-0.0075356094
154	0xbcc59aeb	-0.024121722
155	0x3c3a34e8	0.011365153
156	0xbcd8f141	-0.026482226
157	0xbb458ebd	-0.0030144893
158	0xbc383e65	-0.011245345
159	0x3ec2bd0c	0.38034856
160	0x3c485eb8	0.012229614
161	0xbdb526b9	-0.088452764
162	0x3c94d585	0.01816822
163	0xbbbf84df	-0.005844697
164	0xbd573f8c	-0.052550837
165	0xbc386ee1	-0.011256904
166	0xbd53001a	-0.05151377
167	0x3cf6e2d5	0.030137459
168	0xbea371b3	-0.31922683
169	0x3d3e229f	0.046419736
170	0x3d304900	0.04303837
171	0xbc7e1884	-0.015508775
172	0xbd3fdc91	-0.046841208
173	0xbd90502f	-0.07046544
174	0x3f278d86	0.6545032
175	0x3d0e1650	0.034689248
176	0x3de18f0a	0.11013611
177	0x3cbb406f	0.022857873
178	0x3eb68668	0.3564942
179	0x3e16ab6d	0.14713831
180	0x3c4a653a	0.012353236
181	0xbd51ffc5	-0.05126931
182	0x3d37a94f	0.0448392
183	0x3cb87eb3	0.022521352
184	0x3db08e84	0.08620933
185	0x3cefdc52	0.029279862
186	0xbd7840f4	-0.06060882
187	0xbc2fa9e8	-0.010721661
188	0xbc031a09	-0.008001813
189	0x3cfb2b6c	0.030660354
190	0x3dea8a48	0.11452156
191	0xbd20170e	-0.039084487
192	0xbed6791e	-0.4188928
193	0xbccca3d3	-0.024980461
194	0x3e376f57	0.17913567
195	0x3e77584c	0.24154776
196	0xbde0e7b3	-0.10981693
197	0x3be2348d	0.006903237
198	0x3d572c75	0.052532632
199	0xbc06b55e	-0.008221952
200	0x3e52fe5c	0.20604843
201	0x3e03db92	0.12876728
202	0x3d811ed6	0.063047096
203	0x3e8fa7d2	0.28057724
204	0x3e523aea	0.20530286
205	0x3d27f7ce	0.04100781
206	0xbdba89fa	-0.09108348
207	0xbd79d5ed	-0.06099503
208	0xbcaa7959	-0.020809816
209	0x3dbbbf4f	0.091673486
210	0xbd6c7af6	-0.057734452
211	0xbc8e3fcd	-0.017364407
212	0xbb7886bc	-0.0037922105
213	0x3c0c5f1f	0.0085676005
214	0x3da78a0e	0.08180629
215	0xbd979324	-0.07401112
216	0xbd012bdd	-0.031535972
217	0xbd77ceff	-0.06050014
218	0x3f00a95c	0.5025842
219	0xbca1e3dd	-0.019761974
220	0x3d9f6d8a	0.07784565
221	0x3cb9bd46	0.02267326
222	0x3d59ca02	0.053171165
223	0x3e6e4d65	0.23271711
224	0xbc7036b2	-0.014661478
225	0x3c9aee6c	0.018912517
226	0xba8bd227	-0.0010667489
227	0x3d42d03d	0.047561873
228	0xbd344e39	-0.04401991
229	0x3d3fe469	0.04684869
230	0x3d12aa1e	0.035806768
231	0xbccc1127	-0.024910523
232	0xbcd1d658	-0.025614902
233	0xbb044157	-0.0020180547
234	0xbd91d24f	-0.07120191
235	0x3dde7fda	0.108642295
236	0x3d7477c5	0.059684534
237	0xbc9d8140	-0.01922667
238	0x3c80df54	0.015731491
239	0x3d94b669	0.072613545
240	0x3d17f8de	0.037102573
241	0xbdb37b47	-0.08763748
242	0x3cb3c7e5	0.021945903
243	0xbb5a743d	-0.0033333444
244	0xbdd6e320	-0.104925394
245	0x3c8d7b43	0.01727069
246	0x3d8ab6a0	0.06773114
247	0x3e014578	0.12624156
248	0x3e2ba8c5	0.16763599
249	0xbcab97f7	-0.020946486
250	0x3e86eb41	0.2635136
251	0x3d8382e6	0.06421451
252	0x3e40f8b1	0.18844868
253	0x3e1b5df1	0.15172555
254	0xbd9eceb1	-0.07754267
255	0x3d0a923f	0.033830877

std.bias f4 [2]
0	0x3dd3d397	0.10343092
1	0xbdfd347b	-0.123635255
