models/parking_critic_SAC.pt (torch, 156159 bytes, 5 tensors)

l1.weight f4 [256, 20]
-0.14631602 0.14283055 -0.06830067 -0.18212187 0.2858239 -0.14499834 -0.110141166 -0.085952744
-0.34473914 0.13144284 0.13287714 -0.1354456 0.055070672 0.10015435 -0.17961425 0.1633864
-0.00924553 0.41585067 0.021973325 -0.0032941161 0.79561025 2.92392 -0.019078908 0.25285283
0.105867796 -0.044689998 0.5598179 2.840257 -0.13822134 0.020040354 0.15349907 -0.11855053
-1.4070215 0.022242876 0.06752086 0.16904187 -0.19392869 -0.12600268 0.057211373 -0.04831697
0.45636165 -0.44749582 0.057417687 0.023419607 0.04488632 0.07326579 0.4004203 -0.70335037
0.14414148 -0.2664045 0.1414679 0.34211093 -1.3454106 0.13366729 -0.15373647 -0.17184326
-0.035996035 -0.05861813 0.1772256 0.2963164 -0.1923789 -0.6517963 0.24281941 0.06497825
0.40307942 -0.23913582 -0.17371424 -0.93762565 0.20897393 -0.19508544 0.13950326 -0.36061236
-1.1993127 -0.14878581 0.03184271 0.20123515 0.09949353 -0.050987463 0.16269304 0.055301744
-1.3464153 0.17210874 -0.26872563 -0.01706063 0.13372529 -0.22853617 -1.3953532 0.28198758
-0.11950474 -0.042691533 0.32799715 -0.30774137 3.1959481 0.0026255804 0.193537 0.08181071
0.021365508 0.0065593747 -0.07071854 0.028483715 0.4018306 -0.26538676 -0.15731354 -0.010817444
-0.1050013 0.18676504 0.6002391 -0.12005856 -0.036564004 -0.02848499 0.22257824 0.21004067
-0.4927238 0.0038942718 0.09884438 -0.21804284 0.029562443 0.15011218 0.040110916 -0.4062198
-1.6379519 1.5402105 -0.049850125 -0.13229413 0.063566394 -0.17275982 -1.8476167 1.5205834
-0.108206585 0.15059368 -0.2806028 0.056892436 3.209456 0.11583379 -0.06476319 -0.0136072785
-0.11512343 0.049881853 0.083820105 -0.053284205 0.12785594 -0.6216516 -0.012196273 -0.17284267
-0.049805123 0.295273 0.44318494 -0.757905 0.22167924 0.076643094 -0.22501111 0.18548404
0.019437712 0.07613416 -0.18901213 0.17524618 0.115131944 0.13092439 0.13298574 0.26486573
2.079019 -0.9951995 0.21254405 -0.051039547 -0.006019219 -0.026823055 2.0263782 -1.0298101
-0.1882304 0.03933176 -0.020504493 0.34392372 -4.148601 -0.1321384 0.07336965 0.19791436
-0.044123262 0.050776724 -0.0010967909 -0.0035107743 0.48514137 1.4193101 -0.28560308 0.20466188
0.30890983 -0.106411874 0.48793837 1.3418975 -0.015748596 -0.062210694 0.46203145 -0.36412576
0.8043428 0.28581083 -0.05089332 0.058252215 0.04405704 0.35305208 -0.25000516 0.012110011
0.61754304 0.70013267 -0.08172248 -0.033615775 0.48549557 0.13829266 0.7565104 0.48104644
-0.22954693 -0.23037125 0.24113879 0.018634116 -1.9723489 -0.29921687 0.13081458 -0.043082237
0.18216106 -0.08734317 -0.47895905 0.09110302 0.18898524 3.2550006 0.08830778 0.10136175
-0.10945764 -0.36354876 0.08997867 3.2026713 -0.09226793 0.043237783 0.07794211 -0.23182118
0.17528443 0.054058187 0.19996163 -0.16512008 -0.20179029 0.16187845 -0.0051266467 0.022038624
2.2204378 -0.6013683 0.18136632 0.06321202 -0.08638968 0.22423418 2.1740687 -0.42139038
-0.0931374 -0.09761894 0.01319547 0.04670189 -3.0187826 -0.37650418 0.203442 -0.16178699
00000000: ded3 15be 2c42 123e 39e1 8bbd 287e 3abe
00000010: 8357 923e 727a 14be b191 e1bd fe07 b0bd
00000020: a681 b0be f498 063e f210 083e 40b2 0abe
00000030: c991 613d b91d cd3d ccec 37be c44e 273e
00000040: 907a 17bc 61ea d43e 6701 b43c 19e2 57bb
00000050: 1dad 4b3f 8121 3b40 5f4b 9cbc ed75 813e
00000060: 37d1 d83d dc0c 37bd 3a50 0f3f c5c6 3540
00000070: e589 0dbe ab2b a43c dc2e 1d3e 9fca f2bd
00000080: 4819 b4bf b136 b63c 6048 8a3d 5019 2d3e
00000090: 3e95 46be d906 01be 7956 6a3d 04e8 45bd
000000a0: 3ca8 e93e 2c1e e5be cf2e 6b3d 7ada bf3c
000000b0: b8da 373d 600c 963d e403 cd3e c50e 34bf
000000c0: d399 133e 2c66 88be f6dc 103e 2a29 af3e
000000d0: 6a36 acbf 14e0 083e 186d 1dbe aef7 2fbe
000000e0: 9470 13bd 9019 70bd a17a 353e c8b6 973e
000000f0: f9fe 44be 1fdc 26bf a7a5 783e 5113 853d
00000100: 6d60 ce3e 05e0 74be 25e2 31be 3c08 70bf
00000110: 43fd 553e 7ac4 47be f1d9 0e3e 2fa2 b8be
00000120: 1483 99bf 4f5b 18be 806d 023d 9610 4e3e
00000130: 44c3 cb3d 3bd8 50bd 0199 263e 1584 623d
00000140: 5657 acbf 463d 303e 6896 89be bcc2 8bbc
00000150: 48ef 083e 6305 6abe ef9a b2bf ad60 903e
00000160: e7be f4bd 51dd 2ebd 3eef a73e 4790 9dbe
00000170: 6a8a 4c40 ee11 2c3b 902e 463e 608c a73d
00000180: b806 af3c 06f0 d63b e2d4 90bd ae56 e93c
00000190: bebc cd3e c6e0 87be cd16 21be a63b 31bc
000001a0: ec0a d7bd 563f 3f3e 45a9 193f 43e1 f5bd
000001b0: 23c4 15bd 5b59 e9bc 8deb 633e e714 573e
000001c0: 4b46 fcbe 0a37 7f3b ec6e ca3d 9f46 5fbe
000001d0: f02c f23c 02b7 193e 584b 243d 0bfc cfbe
000001e0: 68a8 d1bf 9e25 c53f a52f 4cbd 1d78 07be
000001f0: 192f 823d f3e7 30be b47e ecbf 7aa2 c23f
00000200: 6a9b ddbd 3b35 1a3e 2cab 8fbe 0b08 693d
00000210: ba67 4d40 443a ed3d 90a2 84bd 10f1 5ebc
00000220: d5c5 ebbd ea50 4c3d e0a9 ab3d 8a40 5abd
00000230: abec 023e 8f24 1fbf e0d2 47bc abfd 30be
00000240: 7500 4cbd 062e 973e 23e9 e23e 1006 42bf
00000250: e2ff 623e 0ef7 9c3d 5069 66be 87ef 3d3e
00000260: d63b 9f3c 3aec 9b3d 658c 41be bc73 333e
00000270: 4cca eb3d 0b11 063e 6a2d 083e 7b9c 873e
00000280: a60e 0540 65c5 7ebf 26a5 593e d80e 51bd
00000290: de3c c5bb 06bc dbbc 2eb0 0140 d1d0 83bf
000002a0: 78bf 40be 571a 213d 0af9 a7bc c516 b03e
000002b0: 57c1 84c0 4a4f 07be d442 963d 10aa 4a3e
000002c0: 98ba 34bd 41fb 4f3d 32c2 8fba 0515 66bb
000002d0: 7364 f83e f4ab b53f 913a 92be e292 513e
000002e0: 6e29 9e3e 78ee d9bd 0fd3 f93e 4cc3 ab3f
000002f0: 3303 81bc a4d0 7ebd 638f ec3e b16e babe
00000300: 69e9 4d3f cc55 923e 8475 50bd e099 6e3d
00000310: 2875 343d 3ec3 b43e ad00 80be 1169 463c
00000320: 4d17 1e3f e53b 333f 1e5e a7bd b2b0 09bd
00000330: e092 f83e 979c 0d3e aaaa 413f b84b f63e
00000340: 5a0e 6bbe 71e6 6bbe 16ed 763e 93a6 983c
00000350: ee75 fcbf f432 99be 42f4 053e 0077 30bd
00000360: 6e88 3a3e fae0 b2bd 1f3a f5be 3894 ba3d
00000370: 5985 413e ee51 5040 b6da b43d c096 cf3d
00000380: 542b e0bd 1023 babe bd46 b83d 91f8 4c40
00000390: f8f6 bcbd 1a1a 313d 1da0 9f3d 8862 6dbe
000003a0: c37d 333e 1e6c 5d3d bec2 4c3e 3d15 29be
000003b0: 1da2 4ebe 77c3 253e 6efd a7bb 588a b43c
000003c0: a71b 0e40 46f3 19bf 18b8 393e 4e75 813d
000003d0: 13ed b0bd a59d 653e f123 0b40 7bc0 d7be
000003e0: d2be bebd 70ec c7bd d031 583c 7b4a 3f3d
000003f0: bc33 41c0 28c5 c0be 1a53 503e 7dab 25be

l1.bias f4 [256]
-0.13748248 -0.4857374 -0.22048557 -0.876542 -0.55902994 -0.21197796 -0.17143495 -0.29766807
0.013065842 -0.95288676 -0.84081304 -0.6634552 -0.33191413 -0.8688971 -0.2872377 0.11731256
-1.4541984 -0.6606457 -0.21382827 -0.31148702 -0.46667206 -0.4644661 -0.3700896 -0.20511979
-0.41568565 -0.4258311 -0.3254021 -0.53970647 -0.8218022 0.024828166 -0.8880756 -0.14480224
-0.4894874 -0.4618385 -0.8694618 -1.1143793 -0.5335509 -1.0294247 -0.32972032 -0.3517315
-0.28130314 -0.33266538 -0.89531404 -0.1675282 -0.7222505 -0.6936754 -0.105672106 -0.0062759514
-0.40851736 -0.18851358 -0.8017131 -0.40880278 -0.25199988 -0.23110653 0.02008418 -0.49219745
-0.7018284 -0.6331095 -0.32355952 -0.3812393 -0.6235991 -0.38038847 -0.01117455 -0.77808386
0.020517899 0.04851167 -0.7057967 -0.66695964 -0.8856049 -0.7515019 -0.5465181 -0.5660826
-0.2793853 -0.22094208 -0.54530054 -0.46379188 -0.5325256 -0.18835865 -0.92995 -0.6283431
-0.105635814 -1.1834825 -0.040500507 -0.41923615 -0.25560895 -0.4229994 -0.7197406 -0.16513517
-0.17791484 -0.7789795 -0.33362466 0.095114045 -0.046068523 -0.5992378 -0.47831425 -1.4506646
-0.4614969 -0.1605757 -0.13099153 -0.70594853 -0.54448 -0.89733386 -0.59701854 -1.0315828
-0.6410827 -0.7038449 0.06507722 -0.7043256 -0.07868728 0.0751268 -0.5875603 -0.69418573
-0.28104714 -0.9147417 -0.2514297 -0.41778246 -0.8228979 -0.07610617 -0.17298357 -0.64597046
-0.23854849 -0.049825933 -0.16126691 -0.26325384 -0.04043591 -0.76937824 0.08355988 -0.2531199
0.14334612 -1.6043433 -0.60243475 0.035383116 -0.3949566 -0.20175603 -0.68123275 -1.0254776
-0.54617 -0.8300874 -0.37291077 -0.47835052 -0.3703479 -0.25157192 -0.040973436 -1.1072084
-0.085204646 -0.7652874 -0.70864785 -0.946553 -0.24410236 -0.41211697 -0.9866692 0.09864168
-0.95649964 -1.178596 -0.06684715 -1.351483 -0.21689565 -0.41848314 -0.13117763 -0.44908863
-0.55910295 -0.76259094 0.16033895 -0.9381145 -0.16327658 -0.44003975 -0.79150486 -0.41382632
-0.097986504 -0.55620056 -0.7341806 0.06605771 -0.6035961 -0.6370122 0.005067876 -0.74682796
-0.88201576 -0.067151815 -1.2439153 -0.68271565 -0.75160056 -0.29716718 -1.3037015 -0.6049667
-0.48998594 -0.19158384 -0.51771355 -0.4668732 -0.7789986 -0.17842528 0.09426551 -0.5368128
-1.0273535 -0.5638486 -0.21221952 0.07798108 -1.0113901 -0.06272178 0.10356326 -0.49344334
-0.59052026 -0.071098514 -0.7154342 -0.5732957 -0.19455732 -1.3610173 -0.6898018 -0.55417114
-0.6069252 0.009678081 -0.45813867 -0.15531258 -0.84643316 -0.008914998 -0.40154347 -0.13907577
-0.2434436 -0.30235928 -0.5502526 -0.76356864 -0.24959332 -0.07358096 -0.018491693 -0.35747698
-0.30465257 -0.14236757 -0.17805801 -0.36029026 -0.9820352 0.011000726 -0.27167255 -0.19981918
-0.58439934 -0.6815539 -1.3882469 -0.5654693 -0.044052675 -0.10579761 -0.7119964 -0.060567815
-0.33717826 -0.40851894 -0.6330753 -0.40986866 -0.913258 -0.3966942 -0.35442558 -0.8056155
-0.1930344 -0.017021965 -0.84360254 -0.697277 -0.60700685 -0.1058947 -0.5562398 -0.32522947
00000000: 35c8 0cbe 93b2 f8be f8c6 61be 0e65 60bf
00000010: 961c 0fbf c010 59be a58c 2fbe f367 98be
00000020: 1d12 563c 63f0 73bf 863f 57bf 33d8 29bf
00000030: a6f0 a9be 0a70 5ebf d210 93be 9141 f03d
00000040: 2c23 babf 1420 29bf ccf5 5abe 3a7b 9fbe
00000050: a4ef eebe 80ce edbe 627c bdbe ec0a 52be
00000060: c0d4 d4be 8906 dabe 1b9b a6be 342a 0abf
00000070: a161 52bf 7064 cb3c ec58 63bf 0a47 14be
00000080: 189e fabe 1976 ecbe 0c95 5ebf fba3 8ebf
00000090: cb96 08bf 30c4 83bf 1ad1 a8be 2716 b4be
000000a0: f706 90be 1e53 aabe 4d33 65bf 838c 2bbe
000000b0: 69e5 38bf b694 31bf 9e6a d8bd 7fa6 cdbb
000000c0: 3029 d1be b409 41be 123d 4dbf 994e d1be
000000d0: 2106 81be 31a7 6cbe 9487 a43c 4e01 fcbe
000000e0: 07ab 33bf 7713 22bf 98a9 a5be cc31 c3be
000000f0: 31a4 1fbf 47c2 c2be 7615 37bc 8130 47bf
00000100: 2715 a83c 2cb4 463d 18af 34bf debd 2abf
00000110: 01b7 62bf 6e62 40bf 9ce8 0bbf caea 10bf
00000120: 970b 8fbe a43e 62be d198 0bbf 2176 edbe
00000130: 9953 08bf 17e1 40be 3411 6ebf 18db 20bf
00000140: 9757 d8bd 5b7c 97bf dce3 25bd 1fa6 d6be
00000150: 2ddf 82be 6193 d8be ec40 38bf 3219 29be
00000160: 4f2f 36be 336b 47bf dad0 aabe 27cb c23d
00000170: 59b2 3cbd a667 19bf 9be5 f4be 61af b9bf
00000180: 5249 ecbe f56d 24be a522 06be 0bb9 34bf
00000190: 0b63 0bbf acb7 65bf 35d6 18bf e80a 84bf
000001a0: ff1d 24bf 2e2f 34bf 3547 853d af4e 34bf
000001b0: cc26 a1bd 14dc 993d 5a6a 16bf 28b6 31bf
000001c0: 69e5 8fbe 832c 6abf 65bb 80be 95e7 d5be
000001d0: 70a9 52bf 8ddd 9bbd 9b22 31be 525e 25bf
000001e0: 0e46 74be 4716 4cbd 2723 25be 35c9 86be
000001f0: 20a0 25bd f9f5 44bf 7121 ab3d ee98 81be
00000200: 53c9 123e 1f5b cdbf 2a39 1abf e3ed 103d
00000210: c037 cabe 2299 4ebe 4565 2ebf da42 83bf
00000220: ccd1 0bbf 9c80 54bf 29ee bebe 5cea f4be
00000230: 3d9e bdbe 09ce 80be c3d3 27bd 01b9 8dbf
00000240: c67f aebd e0e9 43bf f269 35bf 4c51 72bf
00000250: f8f5 79be ff00 d3be 5a96 7cbf a604 ca3d
00000260: 29dd 74bf 3cdc 96bf 29e7 88bd 65fd acbf
00000270: e519 5ebe 6c43 d6be 6e53 06be f2ee e5be
00000280: 5f21 0fbf 2939 43bf e52f 243e 4628 70bf
00000290: fa31 27be e44c e1be 10a0 4abf 0be1 d3be
000002a0: 26ad c8bd 2963 0ebf 43f3 3bbf 4449 873d
000002b0: 4685 1abf 3b13 23bf 6d10 a63b 1e30 3fbf
000002c0: c9cb 61bf e486 89bd 9e38 9fbf 74c6 2ebf
000002d0: e568 40bf 4c26 98be b1df a6bf 19df 1abf
000002e0: 70df fabe 8e2e 44be e088 04bf 010a efbe
000002f0: 746c 47bf 1eb5 36be 470e c13d 906c 09bf
00000300: 5280 83bf 6258 10bf 1350 59be 8bb4 9f3d
00000310: 3b75 81bf 4774 80bd f918 d43d 9ba4 fcbe
00000320: 562c 17bf 199c 91bd b226 37bf 82c3 12bf
00000330: 093a 47be d135 aebf da96 30bf 29de 0dbf
00000340: 735f 1bbf d090 1e3c 2791 eabe 430a 1fbe
00000350: d8af 58bf 3610 12bc 1b97 cdbe e169 0ebe
00000360: 4749 79be d6ce 9abe 5bdd 0cbf 3c79 43bf
00000370: 6495 7fbe 9db1 96bd e47b 97bc 3907 b7be
00000380: 6cfb 9bbe cec8 11be d754 36be f777 b8be
00000390: a966 7bbf 643c 343c aa18 8bbe 669d 4cbe
000003a0: 329b 15bf 517a 2ebf 13b2 b1bf 99c2 10bf
000003b0: 9470 34bd 6bac d8bd 6545 36bf f515 78bd
000003c0: a1a2 acbe 6529 d1be 3911 22bf 4eda d1be
000003d0: 47cb 69bf 811b cbbe 4577 b5be d13c 4ebf
000003e0: cfaa 45be a671 8bbc 56f6 57bf bf80 32bf
000003f0: cd64 1bbf 52df d8bd bb65 0ebf 7a84 a6be

l2.weight f4 [128, 256]
-0.12958615 -0.72291625 0.012180813 0.13466203 -0.3800765 0.17086312 0.16762333 -0.16035499
-0.035313554 0.5687394 0.23214665 -1.5985563 0.13774557 0.13258405 -0.39878255 0.03956534
-0.14286233 -0.07830051 0.38635463 0.09488943 -0.26514107 0.2730022 -1.3466513 0.24114707
-0.3558422 0.62004614 0.2577347 -0.1806709 0.59730446 -0.19594103 0.34160522 -0.302445
0.014436271 -0.057802755 0.25814462 0.30834556 -0.98368543 -0.18164493 0.017906316 0.5379815
0.2570954 0.019897336 -0.37978488 -0.25894585 0.48954484 -0.25289738 0.26157856 -0.15042964
-0.39973307 -0.20208156 -0.120501876 0.08266511 -0.044556 -0.11416197 -0.21070784 0.017313574
-0.11944632 -0.22057861 -0.47505227 -0.34974754 -0.07209179 0.48633343 -0.14283472 -0.6950257
0.121076845 0.025838872 -0.14220263 0.010405498 -0.09582429 -0.4159716 -0.035033282 0.14387193
0.077983536 0.0773414 0.87216955 0.10038163 -0.32603818 0.15123643 -0.099607125 -0.17140104
0.09525248 -0.5257058 0.24565805 0.34162253 0.39992502 -0.17165063 0.18791053 -0.1877397
-0.15199271 -0.042257957 0.22827445 0.6571065 -0.073728606 0.09319446 0.1578691 0.028883118
-0.24167082 -0.15655035 0.15431374 0.27880895 -0.19679698 0.003696593 -0.1937752 0.1770409
-0.060744558 0.12459132 0.6724528 -0.31365696 0.0634486 -0.0909686 -0.22031552 0.008100398
0.044242293 -0.15023084 0.14055087 0.012622238 -0.30908462 0.21653423 0.4492227 -0.19087107
0.2618568 0.22158988 -0.21037042 0.09128959 0.031169392 0.21175517 0.104282744 0.34953666
0.11925869 0.67623556 -0.055955455 -0.019157529 -0.15264824 0.08701822 0.20358588 0.19688033
0.86083066 -0.1932386 0.21676838 0.28936 -0.22631255 0.132023 -0.19954513 -0.38732457
-0.18715878 0.32023108 -0.35665876 0.06507315 -0.20040691 -0.22812481 -0.21390533 -0.15759912
0.052583523 -0.63053864 0.032526467 0.6781654 -0.21920583 0.18087831 0.29811355 -0.04511128
-0.73344964 -0.7490822 -0.03880629 0.06623797 0.060676187 0.03541934 0.3812436 -0.07520389
0.22306207 -0.17217325 0.24842228 0.006778998 0.51249886 0.11273786 -0.12877275 -0.0812137
0.21160662 0.1412808 -1.3959018 -0.15981847 -0.058439743 0.18152207 0.265846 0.12110352
-0.3137337 0.44035217 0.21022268 0.1171317 0.048298772 -0.57539666 -0.5053935 0.5828522
-0.31744477 0.32192248 -0.07086095 0.071146406 -1.1501155 -0.27985728 -0.18073015 0.39855987
0.07220941 -0.4639577 0.256837 -0.079307735 -0.06556276 0.43197146 -0.34454912 -0.28061336
0.1881555 0.18090992 -0.47338152 0.017649855 0.13225947 0.22741386 0.13059442 0.054994173
-0.09420169 -0.2357672 -0.03542467 0.07090017 -0.26528946 0.12670027 0.24762875 0.026642492
0.21638748 0.15630688 -0.22327197 0.0725952 -1.0007955 0.17541829 0.09616768 0.25001854
0.02023188 0.23643933 -1.1486882 -0.772878 -0.18947586 -0.10759709 -0.17836516 -0.14086041
-0.3333274 -0.1581752 0.008432753 0.2321716 -1.0168428 -0.090430036 -0.07040536 -0.420356
0.056172106 -0.2789165 -0.12365192 -0.29273483 -0.04023483 0.12342034 -0.16446018 -0.4296927
00000000: 3bb2 04be 0a11 39bf 0892 473c d8e4 093e
00000010: 6399 c2be bef6 2e3e 73a5 2b3e 1934 24be
00000020: f2a4 10bd e898 113f dab7 6d3e 7e9d ccbf
00000030: 2d0d 0d3e 1dc4 073e 3a2d ccbe 440f 223d
00000040: 814a 12be 055c a0bd 46d0 c53e 6455 c23d
00000050: 92c0 87be f2c6 8b3e 125f acbf 42ef 763e
00000060: f330 b6be 58bb 1e3f cdf5 833e cb01 39be
00000070: f2e8 183f c4a4 48be e1e6 ae3e 12da 9abe
00000080: 1c86 6c3c 95c2 6cbd 882b 843e 78df 9d3e
00000090: cfd2 7bbf 2101 3abe 44b0 923c 28b9 093f
000000a0: 02a2 833e bdff a23c 2a73 c2be 8d94 84be
000000b0: 9fa5 fa3e c47b 81be a0ed 853e 3a0a 1abe
000000c0: d0a9 ccbe 78ee 4ebe b0c9 f6bd 534c a93d
000000d0: 5a80 36bd c0cd e9bd ccc3 57be 32d5 8d3c
000000e0: 46a0 f4bd 5cdf 61be 0d3a f3be 1c12 b3be
000000f0: dca4 93bd b200 f93e 4443 12be 34ed 31bf
00000100: 23f7 f73d 0bac d33c 919d 11be d27b 2a3c
00000110: 863f c4bd 3bfa d4be 0f7f 0fbd 2a53 133e
00000120: d5b5 9f3d 2b65 9e3d 8146 5f3f e294 cd3d
00000130: 7aee a6be b9dd 1a3e d2fe cbbd c183 2fbe
00000140: bb13 c33d a894 06bf c98d 7b3e 26e9 ae3e
00000150: f9c2 cc3e 2fc5 2fbe 9e6b 403e d63e 40be
00000160: faa3 1bbe ae16 2dbd c7c0 693e 2238 283f
00000170: 06ff 96bd bddc be3d 70a8 213e 4a9c ec3c
00000180: 8e78 77be bc4e 20be 6c04 1e3e 0cc0 8e3e
00000190: 2685 49be 8a42 723b 026d 46be 364a 353e
000001a0: 49cf 78bd bc29 ff3d de25 2c3f a597 a0be
000001b0: 57f1 813d bf4d babd 649a 61be 88b7 043c
000001c0: 6837 353d 1dd6 19be 91ec 0f3e 81cd 4e3c
000001d0: 5740 9ebe 26bb 5d3e 8500 e63e b573 43be
000001e0: 1812 863e 75e8 623e 586b 57be 09f6 ba3d
000001f0: f456 ff3c 59d6 583e 3192 d53d 78f6 b23e
00000200: e63d f43d c61d 2d3f 8c31 65bd 40f0 9cbc
00000210: d24f 1cbe 9c36 b23d d178 503e ff9a 493e
00000220: 665f 5c3f 57e0 45be 88f8 5d3e fe26 943e
00000230: 7abe 67be 0a31 073e 8f55 4cbe 684f c6be
00000240: 8da6 3fbe 54f5 a33e fa9b b6be 1245 853d
00000250: 7837 4dbe 8d99 69be 000a 5bbe aa61 21be
00000260: d261 573d fb6a 21bf 793a 053d 3f9c 2d3f
00000270: 7e77 60be 2a38 393e 57a2 983e 9bc6 38bd
00000280: 5bc3 3bbf dac3 3fbf 58f3 1ebd c6a7 873d
00000290: 9887 783d df13 113d 5c32 c33e 7f04 9abd
000002a0: 626a 643e 2f4e 30be 6962 7e3e 5b22 de3b
000002b0: 2033 033f 1be3 e63d 01dd 03be 5e53 a6bd
000002c0: 68af 583e eaab 103e e9ac b2bf 74a7 23be
000002d0: 835e 6fbd ece0 393e f81c 883e 1f05 f83d
000002e0: b4a1 a0be d775 e13e 9d44 573e bfe2 ef3d
000002f0: efd4 453d 324d 13bf 7861 01bf cd35 153f
00000300: 1f88 a2be 06d3 a43e 8c1f 91bd 35b5 913d
00000310: fc36 93bf 7449 8fbe 5311 39be 0a10 cc3e
00000320: 87e2 933d dd8b edbe 2480 833e 186c a2bd
00000330: c545 86bd 5d2b dd3e be68 b0be 8eac 8fbe
00000340: d6ab 403e 7340 393e 105f f2be 6e96 903c
00000350: 076f 073e 2edf 683e 8bba 053e 9241 613d
00000360: d1ec c0bd f56c 71be 7519 11bd 1c34 913d
00000370: 05d4 87be b7bd 013e 6492 7d3e 5b41 da3c
00000380: ae94 5d3e e90e 203e 68a1 64be cbac 943d
00000390: 111a 80bf daa0 333e 90f3 c43d 6e02 803e
000003a0: 54bd a53c 271d 723e 3708 93bf 55db 45bf
000003b0: f605 42be dd5b dcbd 5ba5 36be b63d 10be
000003c0: e4a9 aabe aef8 21be 8829 0a3c 64be 6d3e
000003d0: e827 82bf 6233 b9bd af30 90bd e738 d7be
000003e0: b914 663d 25ce 8ebe 383d fdbd 57e1 95be
000003f0: 47cd 24bd cec3 fc3d 4068 28be ae00 dcbe

l2.bias f4 [128]
0.26851386 0.14247805 0.15212475 -0.20627876 -0.11570809 0.053930037 -0.07337324 -0.09369022
0.0259223 -0.3777001 -0.47943625 0.085968874 0.3347622 -0.20564021 -0.7638171 0.02566027
-0.0146542555 0.3576663 -0.2175369 -0.19875532 0.24512774 0.2365494 0.48794395 0.5136597
0.056927245 -0.14608094 -0.057571784 -0.0054820143 -0.044027757 -0.2839339 -0.022891993 -0.12612261
0.094750345 -0.13657798 -0.14565288 0.10129099 -0.0126551 -0.19300178 -0.058083795 -0.19569124
-0.40283772 0.42045784 0.2877091 0.12806922 0.14846668 0.20205706 0.014562154 -0.45119166
0.20320645 -0.057821378 0.25285378 -0.056503385 0.1589078 -0.2643327 0.16150002 -0.06414102
0.21571924 0.48131043 0.20584387 -0.13465281 -0.028026013 0.043853343 -0.0018547892 0.0052004755
-0.074410446 0.21737865 -0.09199001 0.054007396 0.2762077 -0.21221338 0.19939898 0.017931787
0.07562264 -0.0037635334 0.18689121 -0.007552135 0.34287825 0.059559155 0.3693026 -0.05261559
0.07320317 -0.11953735 0.0983036 -0.38933218 -0.010404528 -0.09860098 -0.067772895 0.22968203
-0.112317495 -0.05162966 0.12054291 -0.039112784 -0.0021557708 0.034398012 -0.19988891 0.30970022
-0.1349749 -0.043878004 -0.007161962 0.35738602 -0.020821923 0.021372486 -0.59047854 -0.10425277
-0.041903574 0.5270408 -0.33825827 0.017615236 0.07882291 0.13317952 -0.040452924 -0.082436964
-0.33867627 -0.18721129 0.047043428 0.01304613 -0.038960394 -0.08098597 -0.5043972 -0.08292183
-0.2968754 -0.24375096 -0.010078296 -0.31089643 -0.46315488 0.0299596 -0.23152754 0.28482628
00000000: a67a 893e c4e5 113e 97c6 1b3e bd3a 53be
00000010: 5df8 ecbd bee5 5c3d b644 96bd a8e0 bfbd
00000020: 015b d43c e861 c1be ab78 f5be 7310 b03d
00000030: f365 ab3e 5993 52be 8489 43bf 7d35 d23c
00000040: 6718 70bc 0a20 b73e fec1 5ebe 8486 4bbe
00000050: c402 7b3e 023a 723e cad3 f93e 347f 033f
00000060: 8b2c 693d 3e96 15be 64d0 6bbd 78a2 b3bb
00000070: 7356 34bd c95f 91be fd87 bbbc 4926 01be
00000080: 780c c23d 19db 0bbe 0726 15be a771 cf3d
00000090: 5657 4fbc 42a2 45be 46e9 6dbd 4963 48be
000000a0: bf40 cebe 4046 d73e 9b4e 933e 9424 033e
000000b0: a607 183e 0ce8 4e3e 1a96 6e3c 9802 e7be
000000c0: 5a15 503e 1cd6 6cbd 0d76 813e 1870 67bd
000000d0: bab8 223e 9e56 87be 4360 253e 5e5c 83bd
000000e0: 81e5 5c3e 526e f63e bcc8 523e 6de2 09be
000000f0: cf96 e5bc 909f 333d 661c f3ba c068 aa3b
00000100: 8164 98bd 8298 5e3e 4265 bcbd dc36 5d3d
00000110: 186b 8d3e 774e 59be 3f2f 4c3e afe5 923c
00000120: 0be0 9a3d 9da5 76bb 6960 3f3e e677 f7bb
00000130: bd8d af3e 4df4 733d 3b15 bd3e 7283 57bd
00000140: 8beb 953d 00d0 f4bd 6653 c93d 8c56 c7be
00000150: c177 2abc 50ef c9bd 84cc 8abd c431 6b3e
00000160: b706 e6bd 9f79 53bd 34df f63d ba34 20bd
00000170: d547 0dbb eee4 0c3d aeaf 4cbe 0791 9e3e
00000180: dc36 0abe 6cb9 33bd e4ae eabb 4dfb b63e
00000190: bd92 aabc 5a15 af3c 9a29 17bf 7a82 d5bd
000001a0: 15a3 2bbd 25ec 063f 3030 adbe d44d 903c
000001b0: e86d a13d 3660 083e f7b1 25bd b6d4 a8bd
000001c0: fa66 adbe 51b4 3fbe 9cb0 403d 6fbf 553c
000001d0: ef94 1fbd f9db a5bd 2d20 01bf ecd2 a9bd
000001e0: 0d00 98be da99 79be 701f 25bc d12d 9fbe
000001f0: a322 edbe d66d f53c 8e15 6dbe c0d4 913e

l3.weight f4 [1, 128]
-0.3721507 -0.47428423 -0.25076422 -0.5391897 0.4053542 -0.3358407 0.045763638 0.12392908
-0.9321974 1.3524578 1.0629364 0.31856266 -0.21043748 0.20682196 0.4509106 0.043934274
-1.1643845 -0.26807854 0.7248924 0.5964414 -0.27757904 -0.388908 -0.19438916 -0.1639875
-0.5015011 0.16255 0.26025712 -0.41076365 0.249443 0.3441622 0.19523384 -0.9452957
-1.7948898 0.2013762 0.3385734 0.28474802 0.43202645 0.22917034 0.24790454 0.18730801
0.49204162 -0.16982852 0.23376834 -0.3565139 -0.35347518 -1.0903659 -3.239953 0.52799296
-0.21342729 0.24376544 -0.3082609 0.16427298 -1.4790431 -3.672751 -0.93468493 0.39105636
0.4566539 -0.18952024 -0.4270867 -0.7459381 -0.017795295 0.21047041 -0.318742 -0.32697123
0.04751679 0.855159 0.39470437 0.82713544 0.32452443 0.4424254 -1.6752663 0.32389164
-0.31922656 0.29015887 0.7322638 0.015789023 -0.17583236 -2.1264865 -4.2482724 -0.009033879
-0.5388844 0.18767403 -0.5684843 0.6478231 0.02638908 0.0055440026 0.04233912 0.26227102
0.17554694 -1.5072982 -0.7157038 0.32364923 -1.1029025 -3.4105554 0.21216552 -0.2593809
0.26547596 0.5086687 -0.3339727 -0.19021593 0.2543185 -1.4275676 0.453431 -0.011940515
-0.56808263 -0.2131168 1.1271852 0.053640522 -0.529677 0.47053865 0.028877335 0.0052178344
0.4969418 0.3198944 0.30158818 -0.013498458 0.035601873 -1.0465384 0.35818622 0.27898318
-0.9499507 0.43946758 -0.22967477 0.4732994 0.52018815 0.64079344 0.25193423 -0.19976461
00000000: 898a bebe 62d5 f2be 2b64 80be 5608 0abf
00000010: 968a cf3e 50f3 abbe a772 3b3d 88ce fd3d
00000020: 7da4 6ebf 561d ad3f 4d0e 883f a51a a33e
00000030: ec7c 57be 23c9 533e c1dd e63e 6df4 333d
00000040: 8d0a 95bf 9741 89be 8c92 393f 62b0 183f
00000050: d71e 8ebe f31e c7be f40d 47be 57ec 27be
00000060: 6062 00bf 8273 263e 6c40 853e 9d4f d2be
00000070: fc6d 7f3e 0736 b03e 61eb 473e e6fe 71bf
00000080: f3be e5bf 9035 4e3e 7e59 ad3e 7eca 913e
00000090: 9232 dd3e a1ab 6a3e b0da 7d3e accd 3f3e
000000a0: e1ec fb3e 87e7 2dbe f860 6f3e fd88 b6be
000000b0: b3fa b4be 1c91 8bbf 645b 4fc0 8c2a 073f
000000c0: af8c 5abe a69d 793e 5fd4 9dbe 2d37 283e
000000d0: 4951 bdbf 5a0e 6bc0 8347 6fbf 8a38 c83e
000000e0: 8ace e93e 9811 42be 1cab dabe cdf5 3ebf
000000f0: 70c7 91bc 8e85 573e 2732 a3be c668 a7be
00000100: f7a0 423d b3eb 5a3f b116 ca3e 26bf 533f
00000110: 1128 a63e 9585 e23e 206f d6bf 20d5 a53e
00000120: aa71 a3be b48f 943e a475 3b3f fb57 813c
00000130: 660d 34be 5b18 08c0 d9f1 87c0 d602 14bc
00000140: 54f4 09bf 9f2d 403e 3088 11bf bcd7 253f
00000150: e92d d83c 77aa b53b c96b 2d3d 6348 863e
00000160: 94c2 333e 26ef c0bf 5d38 37bf 5ab5 a53e
00000170: e92b 8dbf 8a46 5ac0 eb41 593e 93cd 84be
00000180: 77ec 873e 1d38 023f 78fe aabe f7c7 42be
00000190: 0936 823e 89ba b6bf 1c28 e83e 26a2 43bc
000001a0: dd6d 11bf 4a3b 5abe 9b47 903f 2ab6 5b3d
000001b0: e998 07bf 71ea f03e 2990 ec3c 5efa aa3b
000001c0: 286f fe3e 33c9 a33e c469 9a3e a328 5dbc
000001d0: 45d3 113d f8f4 85bf 2f64 b73e e2d6 8e3e
000001e0: f82f 73bf e501 e13e dd2f 6bbe 4d54 f23e
000001f0: 0d2b 053f 0a0b 243f 86fd 803e 188f 4cbe
